model/CNN-LSTM_params.pth (torch, 17223 bytes, 17 tensors)

conv1.weight f4 [6, 10, 2, 2]
000000 47 38 6c bc 13 b6 af 3d 61 d7 86 3d a9 04 e7 3c
       -0.014417714 0.0857965 0.06584049 0.028200464
000010 a4 ee 82 3d 9e c9 c8 bd c5 d1 39 3e 15 f9 b1 3c
       0.06393173 -0.098040804 0.18146427 0.021725217
000020 a7 81 aa 3e 54 d2 9f 3e b5 e5 bb 3d 19 4e 29 3e
       0.33302042 0.31215155 0.091746725 0.16533698
000030 d5 86 87 3e 98 91 3b 3e 66 97 90 3d 71 a7 be 3d
       0.26470056 0.18317258 0.07060127 0.09309281
000040 f7 aa 5b 3e 72 20 90 3d 55 57 46 3e 3b 88 a0 3e
       0.21451937 0.070374385 0.19369252 0.31353936
000050 b0 d6 4e bc 0a 70 cc 3d e9 98 11 3d bc c6 98 bc
       -0.012624428 0.09982307 0.035546217 -0.018649451
000060 c8 f8 c1 be ed 2a 98 be 07 40 04 bf 48 60 0e bf
       -0.37885118 -0.2972025 -0.516602 -0.55615664
000070 f8 ff 41 3e a9 44 06 3b 49 6a 0c 3e f8 e1 a7 3d
       0.189453 0.0020487702 0.1371242 0.08197397
000080 fd b7 76 3e 78 6c e8 bc 2b 3b 2a 3d 37 2f 00 3e
       0.24093623 -0.028372034 0.041560333 0.12518011
000090 b5 c7 47 3d c6 b6 f5 3d 6b fb e4 3d 08 0a 21 3d
       0.04877444 0.11997752 0.11180767 0.039316207
0000a0 ae 59 56 3d d0 48 85 bd 7d 7b ee 3d 9f 76 db 3d
       0.05233162 -0.065080285 0.11644647 0.107159846
0000b0 61 ca 48 3c 45 b2 b8 3d 34 81 f1 bd 80 18 61 3d
       0.012255282 0.09018377 -0.11792222 0.054955006
0000c0 4e c6 f4 3c b4 af 19 3e 2e f6 45 3d e7 c0 50 bd
       0.029879715 0.15008432 0.04833048 -0.050965216
0000d0 ea 2f 12 3e 78 f2 03 3e eb ba d3 3d d0 70 b0 3e
       0.1427609 0.12885463 0.10338386 0.3446107
0000e0 1f 15 d7 3c 2e 7d db 3c 72 db 12 3e fc e9 34 3e
       0.026255189 0.026793089 0.14341524 0.17667383
0000f0 e8 e1 94 bd 12 8f 09 3e eb 71 a9 3d 23 b9 85 3d
       -0.07269651 0.13433483 0.08273681 0.06529453
000100 62 cd b0 be c3 d7 1b bf ae c2 0d bf 4c e2 1c bf
       -0.34531695 -0.608761 -0.5537518 -0.612828
000110 e6 0e 5c bc fa ff 80 bc c0 82 43 3e ef c9 cb 3d
       -0.013431286 -0.01574706 0.19092846 0.09950625
000120 ce 2b 0e bb d5 12 5c 3e 45 0e 54 3e 4f 31 6a 3d
       -0.002169359 0.21491559 0.20708568 0.05717593
000130 2d 91 ae bd 21 4e 2a 3c dc 29 0a be 40 0e 05 3e
       -0.08523784 0.010394604 -0.1349253 0.12993717
000140 aa 85 2a 3e 8a ca 00 be 5b 54 17 3e 3a f1 82 bd
       0.16652551 -0.12577263 0.14778273 -0.063936666
000150 29 eb ff bd f4 44 cc 3d fd 22 44 bd f9 76 f4 bd
       -0.12496025 0.09974089 -0.04788493 -0.11936755
000160 c8 4a 01 3e 2f ab 22 be b0 81 89 3e 50 5f 7a bd
       0.12626183 -0.15885614 0.26856756 -0.061126053
000170 c1 c3 71 3e 86 e7 bb be 74 8a 95 3d ef 64 cb 3c
       0.2360983 -0.36700076 0.073017985 0.024828402
000180 2d 38 1c bd b6 29 f5 3d 32 ab da be 79 ca d4 3d
       -0.03813951 0.11970846 -0.42708737 0.10390181
000190 47 1b 70 bd db 7c d2 3d 56 51 84 be fd 24 b1 bd
       -0.058619764 0.102777205 -0.25843304 -0.08649633
0001a0 07 77 3c bf 25 b1 de 3e d7 db ee be 60 28 f3 bd
       -0.7361912 0.43494526 -0.466521 -0.11872935
0001b0 72 d4 d6 3d e9 11 c8 bd 76 d1 43 bb ed b5 cf bd
       0.104897395 -0.09769041 -0.0029879487 -0.101421215
0001c0 f1 2f d8 3c ca a9 dc 3d f0 ce cf be ab 17 e0 3d
       0.026390048 0.10774572 -0.40587568 0.10942014
0001d0 f2 93 69 3e d5 a3 be be e9 8a 56 be 8c 95 1f bd
       0.22810343 -0.3723437 -0.20951428 -0.03896098
0001e0 a2 b6 01 3e 6e f0 88 3e a1 d1 4f 3e 4d 28 4d 3e
       0.12667325 0.26745933 0.20294811 0.20034905
0001f0 b0 64 a1 bd 55 2c 9d bd 16 98 35 3e ae c4 3b 3e
       -0.07880533 -0.07674471 0.17733797 0.18336746
000200 84 e3 97 3e 5b 7f f4 3d 5a 1b 8e 3d 14 58 b3 3d
       0.29665768 0.11938354 0.06938811 0.08757034
000210 f7 a1 53 3e 81 51 aa 3e b2 38 3f 3e 13 1f cf 3d
       0.20667253 0.33265308 0.18673971 0.10113349
000220 58 be 02 3d 1f 56 1f 3e e9 80 3c 3e a7 e2 e3 3d
       0.031919807 0.15560196 0.1840855 0.11127215
000230 9b 8d 4f 3c e5 5e 0b 3e fc af 16 3e 49 3a 47 3e
       0.012668039 0.13610418 0.1471557 0.19455828
000240 01 18 cf be 0b 28 98 be 77 e2 02 bf dd 5c 0f bf
       -0.40448 -0.2971805 -0.5112681 -0.56001073
000250 3f f5 17 bd 05 d7 86 bd 2e 9e 22 3d f0 58 3f bd
       -0.03709912 -0.065839805 0.039701633 -0.046715677
000260 f1 eb 10 3e b3 03 a6 bb b3 72 46 3e de c8 2e 3c
       0.14152505 -0.005066359 0.19379692 0.010668008
000270 93 88 50 bc e7 b4 91 3e cf f5 08 be b5 7c d6 bc
       -0.012727874 0.2845833 -0.13375019 -0.026182512
000280 fe a4 84 bd fe b8 13 be 17 4d 19 3e fe 95 c8 3d
       -0.06476782 -0.14426038 0.14970814 0.09794234
000290 df c3 6c bd a3 7d 19 3d 38 0c d1 3b 92 61 ee bb
       -0.057803985 0.037473332 0.0063796304 -0.007274815
0002a0 1a a3 09 bb 53 63 4b be 88 dc 02 bd 73 82 5b be
       -0.0021001757 -0.19862108 -0.031948596 -0.21436481
0002b0 89 75 9d 3e e2 d6 a0 3d b2 6f 79 3e 91 c2 ac 3d
       0.30753735 0.07853486 0.24359015 0.08435548
0002c0 20 54 43 3d 9d 22 4b 3e 5f e1 c0 bb 24 fb 50 3e
       0.04768765 0.19837423 -0.0058862413 0.20408303
0002d0 80 d0 8d bd 19 08 1d 3e c7 d4 5b bd dc 38 3d 3e
       -0.06924534 0.1533512 -0.053669717 0.18478721
0002e0 d7 53 54 be f1 7c 74 be 04 af d6 be c2 fb e8 be
       -0.20735107 -0.23875786 -0.419304 -0.45504576
0002f0 eb 1e c1 3b 86 87 ff bc 3a 31 82 bd 0a 30 00 bd
       0.0058935783 -0.031192552 -0.063570455 -0.031295814
000300 fa ad 1d 3e d5 b9 64 3e 88 ec a3 39 6e 8d 4e 3e
       0.15398398 0.22336514 0.00031266012 0.20171139
000310 21 4c 4b be 79 d0 2e 3e 88 89 08 be 7c 7a 04 3e
       -0.1985326 0.17071714 -0.13333714 0.12937349
000320 11 b2 c1 3d 73 3f 48 3e 13 d2 49 bb 53 b9 97 3d
       0.094577916 0.19555454 -0.003079538 0.07408395
000330 db 34 04 3e 3c b1 05 3e fc c9 76 bd a6 73 b8 bc
       0.12910788 0.13055891 -0.06025122 -0.022516083
000340 6b 44 91 3e 4f 2f 72 3e 94 4d 39 3e f8 8c 19 bd
       0.2837251 0.2365086 0.18096 -0.037487954
000350 35 51 45 3d 52 f4 00 3e 99 be 0d 3e ca 18 42 3e
       0.04817315 0.12593201 0.13842238 0.18954769
000360 94 19 3e 3c 53 d6 e7 3d cd e9 b6 3b 03 62 b5 3b
       0.011602778 0.11320176 0.0055820704 0.0055353655
000370 83 a0 5c 3d 94 4d 2d bd b2 46 da 3d ed 71 43 3d
       0.053864013 -0.042310312 0.10658015 0.04771607
000380 0b 5e 82 be 98 a0 db be 35 00 dc be f2 26 03 bf
       -0.25462374 -0.4289596 -0.42968908 -0.512313
000390 a6 2d d8 3c 6a 29 a1 3a 68 81 70 3d 2d 36 16 3e
       0.026388954 0.0012295668 0.05871716 0.14669104
0003a0 43 c0 3f 3e b6 0b 81 3e e8 47 68 3e 66 b9 8e bd
       0.18725686 0.25204247 0.2268368 -0.06968956
0003b0 ce 5a 11 3d f5 2c ff 3d 21 f2 25 3c ad 4b 49 3c
       0.03548699 0.12459747 0.010128529 0.012286109

conv1.bias f4 [6]
000000 5d ad 05 bb 3f 52 34 3e 40 92 aa 3c 6f c2 30 bc
       -0.0020397522 0.176095 0.02082169 -0.010788544
000010 3b 8d 54 3d 8c e3 6d bc
       0.0518925 -0.014519583

conv2.weight f4 [16, 6, 2, 2]
000000 64 08 81 bd 39 88 26 3e 47 d7 4d be 2e ae b2 3c
       -0.063004285 0.16262902 -0.20101653 0.021811571
000010 b1 47 04 3e e2 dc 34 3e df 51 a8 bd 7b 70 65 3e
       0.12917973 0.17662385 -0.08218741 0.22406189
000020 33 ae f2 bd d9 0b 4b 3e fd 08 b4 be ee 63 e0 bd
       -0.11849632 0.19828738 -0.35163108 -0.1095656
000030 54 22 ff 3d 14 02 80 3d ba 84 00 be bd 17 6f 3e
       0.124577194 0.06250396 -0.12550631 0.23348899
000040 86 93 07 bc 29 02 0b bd cb 09 17 3e ed 49 30 3e
       -0.008274918 -0.033937607 0.1474983 0.172157
000050 fb ac c0 3c 4a 83 d5 bc 94 80 28 be 4f cb 41 3e
       0.023519984 -0.02606358 -0.16455299 0.18925212
000060 64 d2 11 3e 92 60 10 3e c0 2b 9b bd a4 1a 2b be
       0.14240414 0.14099339 -0.07576704 -0.16709381
000070 42 93 06 be c3 01 21 be f0 ab 6c bc c0 a4 37 3e
       -0.13142112 -0.15723328 -0.01444529 0.17933941
000080 21 50 f3 bd 05 97 3d 3e 48 48 c4 bc 10 4a 7c bd
       -0.11880518 0.1851464 -0.023960248 -0.06159407
000090 75 f2 e2 bc 16 cd af bd ce ea 3b be 64 0b 19 be
       -0.027703503 -0.08584039 -0.1835129 -0.14945751
0000a0 95 d1 f7 3b c7 ad 76 b9 44 ab 08 3e 60 a2 b1 bb
       0.007562826 -0.00023525125 0.13346583 -0.005420968
0000b0 62 86 28 be c9 49 e3 3d 2e 39 25 be 4e 9b 28 be
       -0.16457513 0.11098058 -0.16135094 -0.16465494
0000c0 7d 1c 9e 3d ac 0c 14 bd 5c bd 85 3e 09 b3 14 3e
       0.077202775 -0.036144897 0.26121032 0.14521421
0000d0 c1 33 91 3e 97 99 7b 3d 2b 11 82 3c 58 dd cd 3d
       0.28359798 0.06142577 0.015877327 0.100519836
0000e0 92 ca 33 bd 38 27 a3 3e ad 34 23 bf 2a 20 7a 3e
       -0.043894358 0.3186586 -0.6375225 0.24426332
0000f0 0f ed fe 3d 51 f1 9a bd 86 f7 84 3d 87 62 26 3e
       0.12447559 -0.07565559 0.06492524 0.16248523
000100 be 1b 5d bd 3b 34 f7 3c 2f 17 da bc d8 66 a8 bd
       -0.053981535 0.030176273 -0.026622383 -0.08222741
000110 a9 b2 1a 3d dd 77 08 3e dc c7 e3 3d ee 06 50 3e
       0.03776804 0.13326974 0.111221045 0.20315143
000120 b4 02 c6 3c 86 f8 73 3e 85 70 65 3e d6 4b 4b 3e
       0.02417121 0.23825273 0.22406204 0.19853148
000130 d4 ac be bd c5 a6 0b 3d d8 2a 13 3e 34 a5 ab bc
       -0.09310308 0.03409459 0.14371812 -0.020952798
000140 78 9f 6f 3d d4 db fe 3e 1f c9 89 be 4f 10 d4 3e
       0.05850169 0.4977709 -0.26911256 0.41418692
000150 01 20 58 3e c2 e9 40 3e dc 7e b5 3d dd 6b 0c 3d
       0.21105959 0.18839172 0.08862087 0.034282554
000160 a0 54 92 3d e2 15 f2 3a c8 17 10 3e d9 30 85 3e
       0.07145047 0.0018469656 0.14071572 0.2601383
000170 6a ba 52 3c 84 18 a9 3d 10 61 37 bd a8 2e 6d bd
       0.012861827 0.08256629 -0.0447703 -0.057905823
000180 b3 15 a7 3d 9d 18 45 3e c6 6f 20 3e 0a 51 32 3e
       0.08158436 0.1924767 0.15667638 0.17413726
000190 f6 70 37 3e e8 b9 33 3e 23 4d 4b be 9c a3 11 be
       0.17914185 0.17551386 -0.19853644 -0.14222568
0001a0 d7 b8 0d 3d 8a 89 8b 3e 4c d8 94 be 36 81 60 3e
       0.034600105 0.2725337 -0.2907127 0.2192429
0001b0 97 46 a9 bd ce 00 1f 3d 63 bc e7 3b c9 fc 35 bd
       -0.08265417 0.038819127 0.007072018 -0.044430528
0001c0 ee 58 cb 3d 6b 12 89 bd dc 84 b1 bd 68 10 64 3d
       0.09929071 -0.06692966 -0.08667919 0.05567971
0001d0 b7 0c 19 be a5 3b 09 3e 05 3d d7 3c 23 e0 d2 3d
       -0.14946257 0.13401659 0.026274214 0.10296657
0001e0 00 f9 83 3e f0 37 73 3e 0b 4a 5a 3e fe 73 4a 3d
       0.2577591 0.23751807 0.21317308 0.049427025
0001f0 88 d6 f5 3d 35 7a 15 3e 41 31 b0 3d e9 ec f6 3c
       0.12003809 0.145974 0.086031444 0.030142264
000200 e8 7b f3 bd d5 04 12 3f 0e 7b ba be e8 55 9c 3e
       -0.118888676 0.57038623 -0.36422008 0.3053429
000210 87 0d eb bc 26 e6 81 3d 80 6e 89 ba 92 1f 71 3e
       -0.028692974 0.063427255 -0.0010485202 0.235472
000220 9c 3e 34 3e 35 0a 27 bd 67 16 22 3e bc 78 ba 3c
       0.17602009 -0.04078122 0.15828858 0.022762649
000230 73 8c 32 3e 17 fd 48 3e 64 c3 a3 3d 77 a0 89 bd
       0.1743639 0.19627796 0.07996252 -0.06720059
000240 a7 6b 39 3e 75 07 58 be 97 af 26 be 6b e8 84 3e
       0.18107472 -0.21096595 -0.1627792 0.2595857
000250 29 e3 b5 3d 82 75 1b bd c9 8a 7f be ab 45 02 be
       0.08881218 -0.03795386 -0.24955286 -0.12721889
000260 fa b0 ba 3e f0 89 61 bf ae 15 9b be de 52 d1 be
       0.36463147 -0.881011 -0.30289978 -0.40883535
000270 6b 3f 9c 3d bf 98 11 3d fa 5a 21 bd e5 16 7b 3e
       0.076292835 0.03554606 -0.039393403 0.24520452
000280 d0 9c 78 3e 48 25 14 3d 48 06 44 bc d3 f7 a0 be
       0.24278569 0.036168367 -0.011964388 -0.31439075
000290 ec 51 7e 3e 61 50 00 3c 60 35 37 be 41 83 df 3c
       0.24835938 0.007831664 -0.17891455 0.027284266
0002a0 9d 63 8d bd 72 50 6b be 18 f0 6e 3e 17 4b 1b bd
       -0.06903765 -0.22979906 0.23333776 -0.037913408
0002b0 ab c1 93 3d be 7b 46 bd 88 bb 88 3e 67 f4 dc 3d
       0.072146736 -0.048457853 0.26705575 0.107888035
0002c0 c4 cf 81 3d 38 c6 bc 3d a2 20 cd 3e a7 eb 01 3f
       0.06338456 0.09217495 0.4006396 0.507502
0002d0 fc 83 36 bc 27 0f 2b be f1 c1 94 3e 6b 2f 6c 3e
       -0.011139866 -0.16704999 0.29054216 0.23064964
0002e0 36 6d 9d 3d c2 91 68 be 81 2e d1 bd 3f d9 4c bd
       0.07686846 -0.22711852 -0.10213948 -0.05001187
0002f0 e0 36 b1 bc 2b 15 a8 bd 95 10 fa bd 5a 86 b5 bd
       -0.021632612 -0.082071625 -0.12210194 -0.08863516
000300 9b 3b 1c be fa 7f 8b be 88 c9 45 3e 92 20 36 3e
       -0.15257113 -0.27246076 0.1931516 0.17785862
000310 01 69 41 be 3f 96 f0 bd 84 9a 10 3e 30 68 5e 3e
       -0.18887712 -0.11747407 0.14121443 0.21719432
000320 64 a9 d7 bd 96 1a 18 3e c0 76 61 3e af 6d 90 3e
       -0.105303556 0.14853892 0.22017956 0.28208682
000330 49 33 f7 3d 47 ee 0d 3d 05 dd 02 be 78 2b 86 3e
       0.12070329 0.034651067 -0.12779625 0.2620504
000340 d6 30 85 bd 5f e0 bf bd b3 29 32 3e 9e 23 2e 3e
       -0.06503455 -0.09368967 0.1739872 0.17005774
000350 27 50 f5 bc 32 1e de bd 66 5f 34 3e 9e dc 5e bd
       -0.029945446 -0.10845603 0.17614517 -0.054409616
000360 dd f3 94 bd 81 fc 67 3c f7 a3 d3 3a ad 20 e3 bd
       -0.07273076 0.014159323 0.0016146888 -0.11090217
000370 11 57 c9 3b 4a 13 0a 3e 0e 95 3a 3e b7 4b 65 3d
       0.0061444123 0.1348392 0.18220922 0.05598041
000380 71 d7 14 be 57 9f aa 3d fc f3 b9 be b4 dc 05 bd
       -0.1453531 0.08331173 -0.36318958 -0.032681182
000390 7c 15 8c bd 29 07 c9 3d 26 b1 87 3e 1f 76 1f 3e
       -0.06840035 0.09815819 0.2650234 0.15572403
0003a0 24 9a f8 3d 4c 45 6b 3e a5 f5 1d be 7c 9f 89 3e
       0.12138775 0.22975653 -0.15425737 0.2687949
0003b0 71 27 3e 3e eb fa d8 3d 24 07 25 3e a7 23 0d 3d
       0.18569733 0.10594734 0.16116005 0.03445783
0003c0 c1 7c 55 3e 43 71 90 3e 8b a9 39 be 9b da ee 3c
       0.20848371 0.28211412 -0.18131082 0.029156974
0003d0 31 f2 91 3d 45 ac 93 3d 68 0a f0 3d 5f 7f 2c 3d
       0.071262725 0.07210592 0.11720735 0.042113658
0003e0 f3 f6 69 3d 74 36 a0 3e 0d f8 a7 be 7e 16 ed 3d
       0.057120275 0.31291544 -0.32806435 0.11576556
0003f0 61 ea ad 3d 42 56 f1 bd 41 07 15 3e d2 78 e3 bd
       0.0849197 -0.117840305 0.14553548 -0.11107029

conv2.bias f4 [16]
000000 89 17 18 be 3c 80 ee bd 59 68 3f 3e 03 ca ad bc
       -0.14852728 -0.116455525 0.18692149 -0.02121449
000010 12 81 19 be 01 87 f6 3d 42 40 b9 3c 77 29 13 3e
       -0.14990643 0.12037469 0.022613648 0.14371286
000020 67 09 9b bc 62 b9 8f 3d 81 18 7b 3d 80 08 0e 3e
       -0.018925382 0.07017781 0.061302666 0.1387043
000030 55 26 1d be 64 a7 02 be 5d b2 4a be 92 d6 c4 3c
       -0.15346654 -0.12759167 -0.19794603 0.024028096

fc_cnn_1.weight f4 [16, 64]
000000 c3 69 0e be b3 a4 d5 bc 45 5d 8d bb 53 6c 64 3e
       -0.13907532 -0.026079511 -0.004314097 0.22306947
000010 92 2b 46 bc 76 c5 92 bd b8 49 26 3e 90 49 04 3e
       -0.012095349 -0.07166569 0.16239059 0.12918687
000020 9d f3 8c bd fd 15 f1 3c d5 dd 98 3d 99 d3 21 bd
       -0.06882403 0.02942943 0.07464186 -0.039508436
000030 3d 2d 0c bc e2 34 a9 3e 8c ad 0f bd cc ae a9 3e
       -0.0085557075 0.3304816 -0.035077617 0.33141172
000040 c9 13 0a be ec 8c a1 3e ab 78 33 be e5 69 da bc
       -0.1348411 0.31552827 -0.175265 -0.026661823
000050 b8 a6 10 bd 56 36 dc 3d eb 2e 8d 3e 07 e6 dc bc
       -0.035315245 0.10752551 0.27574858 -0.026965154
000060 7c 9b 2c bb dd 18 e3 be 3a 8b 0e be 28 60 1c 3e
       -0.0026337793 -0.44354907 -0.13920298 0.15271056
000070 78 d7 b7 3e be bd 99 3e 32 5f 5d 3e 10 f9 6a bc
       0.35906577 0.30027574 0.21618345 -0.014341608
000080 b4 fc 95 3e 71 b7 1d 3e 03 cd 4a 3e 98 e2 22 3e
       0.2929436 0.15402009 0.19804768 0.15906751
000090 46 42 8c 3e 16 d6 73 3e e6 c1 eb bd 5e 6d cb 3d
       0.27394313 0.23812136 -0.115115926 0.099329695
0000a0 00 60 9a 3e 6e 0d 24 be c5 f3 ba 3d 51 cb 6f 3e
       0.30151367 -0.16020748 0.091285266 0.23417403
0000b0 91 32 bd bd 88 74 b4 3e c3 55 50 3e da 4a b9 3d
       -0.092381604 0.35245156 0.20345215 0.0904748
0000c0 fc 97 19 3e b7 e6 0a bd 35 94 76 3d f2 0e ce 3d
       0.14999384 -0.033911433 0.060199935 0.10061444
0000d0 6d 53 69 be c6 23 d0 be 13 fd 35 be c9 1b 25 3e
       -0.2278573 -0.40652293 -0.17772321 0.1612388
0000e0 48 10 65 3e b3 8e 9c 3e f4 f5 88 3e d3 75 4f be
       0.22369492 0.3057762 0.26750147 -0.2025979
0000f0 5e d6 17 3e 48 22 00 3e ec cc da 3d 3f 51 8e 3e
       0.14827868 0.12513077 0.10683617 0.2779636
000100 47 35 70 3e a9 52 4f 3e b8 1e 4b be ca fc cf 3d
       0.23457824 0.20246376 -0.19835937 0.101556376
000110 67 b8 3e 3c 3b 68 19 3e a5 f5 5f be 9e 9b 89 3e
       0.011640645 0.14981167 -0.2187105 0.2687654
000120 18 ee ea bd 68 93 35 bd f7 c4 f2 3d a2 b7 e5 bd
       -0.11471194 -0.04433003 0.11853974 -0.11216666
000130 b6 1e c7 3d 33 41 03 3e 0f e5 73 3c 05 a4 6c be
       0.097226545 0.1281784 0.014886155 -0.23109443
000140 25 d1 33 be 14 8e 5d be 24 e0 a5 3d f1 8a 8e be
       -0.17560251 -0.2163623 0.08099392 -0.2784038
000150 0d 9e 67 be af e9 1a be 13 cc 1e be de f9 2c 3e
       -0.22618885 -0.15128206 -0.15507536 0.16892192
000160 5e 21 6a 3e 16 12 b4 bd 27 7e 30 bc 57 7a ec 3d
       0.22864291 -0.08792512 -0.010772265 0.11546772
000170 1f f5 a9 3d e5 6a db 3c 79 58 28 be c2 c1 82 be
       0.08298706 0.02678437 -0.1644 -0.2553845
000180 4e 1f 82 be ee 2f 49 3e 99 5d fb bd ea 01 ea bd
       -0.2541451 0.1964719 -0.12273712 -0.11426146
000190 45 be 1a 3e 34 98 2e be 8c 4c eb 3d 69 c7 40 be
       0.15111645 -0.17050248 0.114892095 -0.18826069
0001a0 61 37 56 be f9 6f 83 be 4a 9c 1c be b3 47 37 3e
       -0.20919563 -0.25671366 -0.15293995 0.17898445
0001b0 0f 90 16 bd 18 7a 27 be e9 ff 09 3d 77 d8 80 3e
       -0.03675848 -0.16355169 0.03369132 0.2516515
0001c0 0a 3e 98 bd 02 26 34 be 79 6c 7a 3e 75 81 06 be
       -0.07433708 -0.17592624 0.24455442 -0.13135321
0001d0 65 61 71 3e b8 9c 17 3c 74 46 03 be b8 c6 3e be
       0.2357231 0.009253673 -0.12819844 -0.18630493
0001e0 44 fa 0e 3e 4a 5a 26 3e dc 70 70 3e 70 b2 0c bd
       0.13962656 0.1624538 0.23480552 -0.03434986
0001f0 9c 78 65 bd b0 15 dd 3a 70 8c ce bd 0c 41 7c 3e
       -0.056023225 0.0016867425 -0.1008538 0.24634188
000200 53 1b 94 3d 65 0a 8b be cc 5c 48 3e 30 33 03 3e
       0.07231774 -0.27156368 0.19566649 0.12812495
000210 fe 6e 08 be 49 5f bf bc fa ff 18 3e 95 35 ee 3c
       -0.1332359 -0.023360865 0.14941397 0.029078284
000220 8b 91 4e 3e 1f 29 47 3e e4 9d 22 be ca bf 7d be
       0.20172708 0.1944928 -0.15880543 -0.24780193
000230 e5 a0 06 3d 08 ba 09 be d0 df 5a 3e 99 bc 3b be
       0.032868285 -0.13449872 0.2137444 -0.18333663
000240 b1 4b 2f be 81 1e 1e 3e bf 65 a7 bc 09 ce ce bd
       -0.17118718 0.15441324 -0.020434259 -0.10097892
000250 82 90 8e bd da 9f b4 3d 19 4a 3d be 27 56 8f be
       -0.069611564 0.08819552 -0.18485297 -0.27995417
000260 6c c6 62 be 0b 36 d3 bc 3f f1 d5 3d e7 15 93 be
       -0.22146004 -0.025782606 0.10446405 -0.28727648
000270 ab fe 90 bc 0f 67 83 be da 22 fa 3d 5d ab 76 3e
       -0.01769956 -0.25664565 0.12213679 0.24088807
000280 7b 89 a7 3d dc 31 2c be bb 61 b4 bb 40 65 6f bd
       0.08180519 -0.16815895 -0.0055048144 -0.05844617
000290 11 74 f7 bd 26 e6 14 3e 18 d7 66 3e e9 56 c5 bd
       -0.12082685 0.1454092 0.22542989 -0.096357174
0002a0 8f 3b da bd 0b be 4f 3c af a4 96 3d 65 a5 8e 3d
       -0.10655891 0.012679587 0.0735563 0.0696514
0002b0 94 03 a2 bd 08 1b 94 bd 23 7c 8f be 69 1d 62 3e
       -0.07910839 -0.07231718 -0.28024396 0.22081532
0002c0 70 99 e8 3d b9 79 be 3d b0 d0 a4 bc 18 ea 0c 3e
       0.11357391 0.093005605 -0.020119041 0.13761175
0002d0 a2 21 0b 3d af 91 c2 3d 77 dd 83 3e a7 32 10 3d
       0.03396762 0.09500443 0.25754902 0.035204556
0002e0 38 5e 9b bd 33 5c f6 bb 7b b2 5b 3c 86 3b 6e be
       -0.0758633 -0.007518315 0.013409252 -0.23264894
0002f0 1f a0 0e 3d 36 9e 92 3c ff 0e d2 3d 58 cb 96 3d
       0.034820672 0.017897706 0.102567665 0.073630035
000300 70 f1 0b be d0 98 5a be 43 7c 29 be ff bc 11 bd
       -0.1366632 -0.21347356 -0.16551308 -0.03558063
000310 88 0a 4e be 77 5a 25 bc 7b 5d 91 bd 55 e8 8a be
       -0.20121205 -0.010092369 -0.07097908 -0.2713038
000320 dd 44 c9 3d a2 93 8d bc 4f 83 a2 bd a3 0a b0 bd
       0.09827588 -0.01728231 -0.079352014 -0.08595779
000330 05 a9 01 3e 98 17 84 3d 05 f3 4a bd 00 c2 74 3e
       0.12662132 0.06449813 -0.049548168 0.2390213
000340 47 8e 0e 3e ae 0a 7b 3e 7d cf 14 be 72 55 9b bd
       0.13921462 0.24515793 -0.14532275 -0.07584657
000350 c6 b9 84 be f8 8e 52 be b2 b5 76 be 5d 86 f7 bc
       -0.25922984 -0.20562351 -0.24092749 -0.030215437
000360 17 58 5f bc b9 e7 ba 3e 48 10 43 be 8f e4 f0 bc
       -0.013631842 0.36504915 -0.1904918 -0.02940586
000370 0a b0 d3 bd 9f 0a 81 3d f4 88 d1 3d a5 7a 9e 3d
       -0.10336311 0.06300854 0.102312 0.07738236
000380 ab 8c 7f bb 75 5f 33 3e 73 19 a0 bd 00 98 80 3e
       -0.0038993757 0.17516883 -0.07817354 0.25115967
000390 9c a9 1b 3e 0b c6 48 3e 0d 1b 3e 3e 44 d1 66 3e
       0.1520142 0.19606797 0.18565007 0.22540766
0003a0 71 71 43 be 07 4f 0e bd 5d d5 56 bd 3f d7 2e bd
       -0.19086243 -0.034743335 -0.052449573 -0.042685743
0003b0 f1 fa 9d 3c 6b 71 16 be e6 b9 4b bc 3b b9 72 3e
       0.019284697 -0.14691703 -0.012434458 0.23703472
0003c0 70 22 17 3c d9 32 f7 bd da 0f 95 bc 25 16 2a 3e
       0.009224519 -0.12070245 -0.018196035 0.1661001
0003d0 56 89 7c 3e 17 be 9a bd 69 2c 23 3e 31 7e c0 3d
       0.24661765 -0.07555788 0.1593491 0.09399069
0003e0 83 b8 ca 3c 00 38 5a 3e a8 59 20 3e 3a 03 68 3e
       0.024746185 0.21310425 0.15659201 0.22657481
0003f0 d2 29 e1 bd 8a e6 9b bd 0e 59 0c 3e 2a f0 01 be
       -0.10994305 -0.07612331 0.13705847 -0.12689272

fc_cnn_1.bias f4 [16]
000000 36 32 aa 3d a8 9a 26 ba a8 31 34 bc 2b 84 fa bc
       0.08310358 -0.0006355443 -0.010998167 -0.0305806
000010 4b 9e a6 3d 30 c6 29 3d 1e 01 9c bc ce ba 02 bd
       0.08135661 0.041448772 -0.019043501 -0.031916432
000020 46 bf a5 3d 50 31 91 3d 67 15 17 bd 99 0a b6 3d
       0.08093123 0.07089484 -0.036885645 0.0888874
000030 b6 24 a2 3d 8c 59 a8 3d 2e 6a a8 3d 0f 50 a9 3d
       0.07917158 0.08220205 0.08223377 0.08267223

lstm.weight_ih_l0 f4 [32, 12]
000000 46 13 36 be bc 23 1d 3c 7b e6 4e bd f2 30 42 be
       -0.1778079 0.009591039 -0.050512772 -0.18963984
000010 98 97 64 bd ec 6c 29 3e ea 0c 36 be 2b d5 c2 bd
       -0.055808634 0.16545457 -0.17778364 -0.09513315
000020 7b 05 b4 3e 8c 7f c8 3e a3 e5 6e 3b 61 42 b5 3e
       0.3516043 0.3915981 0.0036452792 0.35402206
000030 d7 a3 85 3e 4b 9a 71 be 53 21 73 bd a9 f9 57 be
       0.26101562 -0.23594014 -0.059357952 -0.21091332
000040 8a 7d 5e be 16 9b 92 3e f8 49 0f be 10 1f 64 3e
       -0.21727577 0.28633946 -0.1399306 0.22277474
000050 b5 f1 8d 3e 74 21 bf 3d 20 2c bb bc 1d a7 49 3e
       0.2772347 0.093325526 -0.022848189 0.19692655
000060 73 a6 b5 3d 50 4c c2 3e d3 56 96 bd cf 7f 9c 3e
       0.08869638 0.37948847 -0.07340779 0.3056626
000070 da 5c 80 be 6a 83 97 3d 3a c5 52 be ed 3e 87 3e
       -0.2507084 0.07398112 -0.20583048 0.26415196
000080 56 a1 da bd 47 75 a2 be 46 4b 19 be ef 61 85 be
       -0.10675304 -0.317301 -0.14970121 -0.2605128
000090 64 3b ae 3d 81 f3 11 3d 2b 98 cb 3c 3c b2 b5 3e
       0.085074216 0.035632614 0.024852833 0.35487545
0000a0 7e 23 68 3e 1a 0f 4b bd 4d fd 82 3e b5 67 1a 3e
       0.22669789 -0.04957495 0.25583878 0.15078624
0000b0 22 0a 10 be e4 42 cb 3e 34 59 e1 3e 15 48 28 be
       -0.14066365 0.3969947 0.4401337 -0.16433747
0000c0 4a 56 38 3e 15 e4 9f 3e da eb d3 bd 30 35 8a 3d
       0.18001667 0.312287 -0.103477195 0.06748426
0000d0 83 fb 4c 3e 10 c8 45 be 0f 11 e1 3d 94 43 cb 3d
       0.20017819 -0.19314599 0.10989582 0.09924999
0000e0 b4 d4 6f 3e 27 e4 4f bd 71 c9 96 3d 9f 77 b7 3e
       0.23420984 -0.050754692 0.07362641 0.3583345
0000f0 c8 19 c8 3e da 05 91 3e 95 fc 2c be bf 69 a1 3d
       0.3908217 0.28324777 -0.16893227 0.078814976
000100 1f a2 11 3b 7e eb 1c 3e 63 43 aa bd 43 75 04 be
       0.0022221876 0.15324208 -0.08313634 -0.12935357
000110 cd a7 57 3d 66 07 ea bb 4e f5 8c bd 35 3e 95 3e
       0.05265026 -0.0071419952 -0.06882726 0.29149023
000120 99 0d 1e 3e 09 e6 5d 3e cf c1 00 3e 8a fe 91 3e
       0.15434875 0.21669783 0.12573932 0.2851451
000130 dc 6b 82 bb b8 16 bc 3d 64 85 a7 3e df aa b6 3e
       -0.003980143 0.09184021 0.32718956 0.3567724
000140 9f a4 ee bd 3b 71 89 be 50 7f 40 3e 98 3d cb 3e
       -0.11652493 -0.268442 0.18798566 0.3969543
000150 30 40 cc 3d 2b 55 5b 3e c2 fd 29 3e 1d 75 30 3c
       0.0997318 0.21419208 0.16600707 0.0107701095
000160 8e 8a 9d 3e 53 37 95 3e 6d d9 6b bd a6 9a 77 be
       0.3076977 0.29143772 -0.0575804 -0.24180087
000170 7f 8f 7c 3d be 31 8b 3e c8 1e a4 3d 42 69 36 3d
       0.061660286 0.27186388 0.080136836 0.044533975
000180 3a ab 79 3e 19 db b7 3c 95 af 31 3e 21 90 1e be
       0.24381724 0.022443341 0.17352135 -0.15484668
000190 55 89 6a bc 2c 34 95 bd ba 12 d2 bd 29 c8 1c 3e
       -0.014314969 -0.072853416 -0.10257478 0.1531073
0001a0 0d 63 60 3d 91 a0 31 bd b2 88 05 3e ad c2 ad be
       0.054781962 -0.04336602 0.13040426 -0.33937588
0001b0 87 7b b0 3e 14 ca c3 3d 66 94 63 3e 54 73 19 be
       0.34469244 0.09560028 0.22224578 -0.149854
0001c0 4d 81 2b be a4 ac 58 3e 33 0f 81 be c1 78 69 3e
       -0.16748543 0.21159607 -0.2520691 0.2279997
0001d0 c2 d6 d1 3e da cf d9 3d ac d2 d6 3d 33 68 91 bd
       0.4098416 0.10635348 0.10489401 -0.070999525
0001e0 bc 3a b3 3d 55 7b 2f 3d f1 40 9a be b0 7f 7e 3d
       0.08751437 0.042842228 -0.3012767 0.06213349
0001f0 4b a6 2d 3e 68 46 91 be 5e ba 80 3e 2a ab 4f bd
       0.16957967 -0.28374028 0.25142187 -0.050700344
000200 2c 3b 91 3e 83 46 8a 3e ec 04 94 bd d2 21 b5 3d
       0.28365457 0.2700692 -0.07227501 0.08844341
000210 34 6d 31 bd 0f b8 42 be 38 4f ae 3e a1 71 4e 3e
       -0.043317035 -0.19015525 0.34044814 0.20160533
000220 37 85 a9 ba 1b 93 36 3e ee 86 21 3d 28 27 d8 3c
       -0.0012933378 0.17829554 0.03943532 0.026385859
000230 9a a2 27 3e c9 c7 14 be 23 f7 10 be 17 46 cf bd
       0.16370621 -0.14529337 -0.14156775 -0.101207905
000240 af 57 7b 3e d3 c4 f0 3d 9f d0 7e 3e 15 a4 22 3e
       0.24545167 0.11756291 0.2488427 0.15882905
000250 7e fc 88 be 3f 29 0a 3d 47 bf a0 be b1 56 66 be
       -0.26755136 0.03373074 -0.31395933 -0.22494008
000260 55 3b 50 3e e1 0c 1f 3e 69 2c 01 be 11 fe 0b be
       0.20335133 0.15532257 -0.12614597 -0.13671137
000270 5b bb ef bd 57 97 53 3e 29 54 34 3e d6 a3 ac bd
       -0.11705657 0.206632 0.1761023 -0.08429687
000280 22 70 84 be eb fc 41 bd 51 29 b5 3d c1 41 86 3e
       -0.258668 -0.047360342 0.08845771 0.2622204
000290 95 1c 78 3c 56 74 ca 3e 0f 70 39 be 24 1c 4c be
       0.015143533 0.39541882 -0.18109153 -0.1993261
0002a0 86 5a 82 be 5e c9 83 3e 6b ae 0f be 58 0a 26 be
       -0.2545969 0.25739568 -0.14031379 -0.16214883
0002b0 05 5e d8 3d 8f e3 2e be 70 0c aa bc 31 96 61 bd
       0.10564808 -0.17078994 -0.020757884 -0.055074874
0002c0 e7 30 c0 3c a9 95 4c be f6 4c 86 3d 01 40 cc 3d
       0.023460818 -0.19978966 0.06557648 0.09973145
0002d0 0a bd 6c 3e a3 d8 7f 3b eb fb 5e 3e 32 5a 09 be
       0.23118988 0.0039039038 0.21775787 -0.13413313
0002e0 30 d4 12 3d ae 12 9c 3e 7d 11 4c 3e bf 03 1b be
       0.03584689 0.30483 0.19928546 -0.15138148
0002f0 1d 48 b5 3e c6 d3 9e 3e 28 1e 5a be 72 c5 ec 3d
       0.3540658 0.31020945 -0.21300566 0.11561097
000300 d4 8b c9 3d 44 ae 50 3e e5 18 c1 3e bc e3 94 bd
       0.09841123 0.20378977 0.37714306 -0.072699994
000310 19 b5 5b be c9 47 0f bd 4e 90 1c be 7d e7 95 be
       -0.21455802 -0.03498057 -0.15289423 -0.29278174
000320 c8 9b 56 bd fc 80 b6 bd 98 5f 8e 3e f0 4c 8b be
       -0.05239466 -0.089113206 0.27807307 -0.27207136
000330 26 bc e4 3c 37 5e be 3e c7 5e d7 3d e9 d4 d6 3d
       0.027921747 0.37181255 0.10516124 0.10489828
000340 4f 11 ad 3e 3c 79 7f 3e 2a cc c5 3e 06 54 a9 bd
       0.33802268 0.24948591 0.38632327 -0.08267979
000350 ae 37 e4 3d e6 f5 59 3d 28 9c 19 3e 7d 72 41 bd
       0.111434326 0.053213023 0.15000975 -0.047228325
000360 9b ef 69 bc 5f 7c 7e 3e 46 be b7 be ab 56 a3 be
       -0.014278318 0.24852131 -0.35887355 -0.3190206
000370 d2 bb 89 be 0c c5 c5 be 94 10 59 3e cd 74 79 3d
       -0.26901108 -0.38626897 0.2119773 0.060902406
000380 5a 74 91 be 11 f7 35 3e 0e a9 53 3e 18 d4 84 3e
       -0.28409082 0.1777003 0.20669958 0.25943065
000390 cd 99 6d bb 0b 2b cb 3d e6 6a bb 3d 1a 66 66 bd
       -0.0036255002 0.09920319 0.09151249 -0.056249715
0003a0 a2 8c b8 3e 71 a5 d8 bd 5b 7e e5 3d f2 56 fb 3d
       0.36044794 -0.105784304 0.11205741 0.12272443
0003b0 59 b9 6a be 8e eb ab 3e 64 f6 27 be 04 84 d6 bc
       -0.22922267 0.3357815 -0.16402584 -0.026185997
0003c0 d2 1a 34 3d 35 30 b5 3e ab f0 ff bc 21 58 62 3e
       0.04397089 0.35388342 -0.03124269 0.22103931
0003d0 9c 10 98 bb 2b 94 7e 3e 55 8d a4 ba 0b 88 b2 3e
       -0.004640652 0.24861209 -0.0012554327 0.34869418
0003e0 ba ac 30 3e 4d 98 f3 bd 28 1d b0 3e 84 05 40 be
       0.1725339 -0.118942834 0.34397244 -0.18752104
0003f0 90 e6 3d 3e 17 7f 32 3e 26 ff e8 bd 85 ef ab be
       0.18544984 0.17431293 -0.11376791 -0.33581176

lstm.weight_hh_l0 f4 [32, 8]
000000 81 8e 8d 3d 0c f4 53 bd 1b 10 38 3e 22 22 50 3e
       0.06911946 -0.051746413 0.17974894 0.2032552
000010 67 b0 1c be 32 ef 19 be 4c 2c 19 3e a8 bd 2b be
       -0.15301667 -0.15032652 0.14958304 -0.16771567
000020 6b 7a 0b 3e 1d a3 6c 3e a8 92 34 be e7 68 c0 3e
       0.13620917 0.23109098 -0.1763407 0.37580034
000030 10 3a 52 be 26 2c 18 be 10 ba 43 be c5 12 44 be
       -0.20529962 -0.14860591 -0.19113946 -0.19147785
000040 49 11 b9 bd 12 db 62 3e e7 83 da bd 6e b3 1e bd
       -0.090365 0.22153881 -0.106696896 -0.038745336
000050 22 b9 5c be 41 51 61 bd d0 66 c7 be 2b 84 3e bf
       -0.21554998 -0.05500913 -0.38945627 -0.7442042
000060 18 88 53 3e 90 6f 27 be fc fb cd bd 55 cb 5a be
       0.20657384 -0.16351151 -0.10057828 -0.21366628
000070 e0 bf 21 3e 63 cf a0 be 12 f8 88 be a7 67 57 3e
       0.15795851 -0.31408224 -0.26751763 0.21035634
000080 62 04 7f 3c 30 05 5f 3e d1 99 80 3e f7 6f 11 3e
       0.01556501 0.21779323 0.25117353 0.14202867
000090 68 04 91 be 84 38 8a be f8 33 38 be 1a a7 de be
       -0.28323674 -0.26996243 -0.17988575 -0.43486863
0000a0 5d da 8b 3e 4d 42 a3 3e e4 34 e2 bc 6e cd 8f 3e
       0.27315035 0.3188652 -0.02761311 0.28086418
0000b0 dd d5 22 3e ee 0d 35 3e e9 62 4a 3e 39 71 87 be
       0.15901895 0.17681095 0.19764294 -0.2645357
0000c0 6d a6 0a bd 5f e7 07 3e 2c 60 8c 3d e3 b7 4a be
       -0.033850122 0.13271855 0.06854281 -0.1979671
0000d0 f5 c0 01 be d7 77 be be 9c b6 54 be 3a 23 97 3e
       -0.12671264 -0.37200806 -0.20772785 0.29519063
0000e0 a6 90 9f 3e 2a b2 8d 3e 13 4a 03 3d 81 fc 88 3d
       0.31165045 0.2767499 0.032053065 0.06688786
0000f0 9a 6a a1 3d 5c 02 14 3e 24 b2 35 3d 6b 49 a7 3c
       0.07881661 0.14454025 0.04435934 0.02042075
000100 2c cd b0 be a8 74 ad 3d 2f cc 94 3c c1 1d bd bd
       -0.34531534 0.08469516 0.018163769 -0.09234191
000110 8c b6 b7 3e b3 57 f9 bd 15 8c 13 3e fb 95 4e be
       0.3588146 -0.121749304 0.14408906 -0.201744
000120 ff 6d 9c 3e c1 df b0 3c 54 ad a2 3e 5e 2b 8a bd
       0.3055267 0.02159107 0.31772864 -0.06746553
000130 56 99 99 3e a7 c8 0a bb 6d cc e6 3d 89 cf 98 be
       0.299998 -0.0021176727 0.1126946 -0.29845837
000140 ed ff d4 bd e1 5e 8f be ea 52 20 3e 7a 95 82 3e
       -0.104003765 -0.28002074 0.15656629 0.25504667
000150 58 f6 9b be 06 56 52 3e 95 0a 4b be 8d 02 02 bf
       -0.30461383 0.20540628 -0.19828255 -0.5078514
000160 82 93 29 bd 1a 3b ba 3e aa a9 3d 3e 2d 76 da 3e
       -0.04140044 0.36373216 0.18521753 0.42668286
000170 4e 3e 08 be 79 5a 6c 3c 63 68 95 b9 9d e6 83 3d
       -0.13305017 0.014425867 -0.0002849727 0.0644047
000180 12 49 b4 3d ab ab 20 3e 05 56 25 3e 48 da 08 bd
       0.088029996 0.15690486 0.16146095 -0.033411294
000190 98 8c dd 3c 7e ed 53 bc 7b 62 9a 3e dd 3a 28 3d
       0.02704458 -0.0129350405 0.3015326 0.04107176
0001a0 7b 0e a9 be 1c 23 e4 3e c2 64 97 3d f8 dc d0 3d
       -0.3301886 0.44558036 0.07392265 0.101983964
0001b0 46 6c a9 3e c5 df 68 3c 54 22 bc be e2 7e 9b be
       0.3309042 0.014213507 -0.3674494 -0.3037024
0001c0 42 a7 99 3c e4 56 9f 3d 69 42 17 bd 26 8c 71 3e
       0.018756513 0.07780245 -0.036928568 0.23588619
0001d0 5e 86 c0 bd 55 cc 0f 3e 0e ea 7c be 38 ea d8 3d
       -0.094006285 0.1404279 -0.2469866 0.10591549
0001e0 3c 2a dd 3e 3a 49 f8 bd f3 ef 95 3e bb af 81 3e
       0.43196285 -0.12123342 0.2928463 0.25329384
0001f0 36 2d 91 be f2 72 bc be de c9 00 3e fa 7c 7e 3e
       -0.28354806 -0.36806446 0.12577006 0.24852362
000200 46 23 f3 bd 98 02 24 3e 23 30 0c 3e 9c d3 84 be
       -0.11871962 0.16016614 0.13690238 -0.25942695
000210 9c 09 8b 3d a2 d5 e3 bd 5b 44 17 3e fd cc 31 3e
       0.06788942 -0.111247316 0.1477217 0.17363353
000220 c7 d8 cd bc 3a ab 76 3e f0 85 37 bc 9d 10 a5 3e
       -0.025127782 0.24088755 -0.011201367 0.32239237
000230 f0 fd 0c be 12 7c 7a be b2 de 7a be 9b 5c aa bd
       -0.13768744 -0.24461392 -0.24499014 -0.08318444
000240 b1 a7 74 be 33 2e e6 bd 40 18 8a 3e 04 ae 53 3c
       -0.23892094 -0.112392806 0.26971626 0.0129199065
000250 d2 32 5c 3e 73 29 32 3d 5e fe 7c be 08 7f 9f 3e
       0.21503761 0.04349656 -0.24706408 0.31151605
000260 4b 76 2f 3d 4e 1d a5 3e b1 30 10 3c 38 84 ba 3e
       0.042837422 0.3224892 0.008800671 0.36429
000270 a5 90 d2 bd 8f 7b a7 be de e4 12 3e 81 2c 0b 3d
       -0.10281495 -0.32711455 0.14345118 0.03397799
000280 ed d3 8a 3e 67 93 84 bc 38 65 74 be a4 cb 92 bd
       0.27114812 -0.016183568 -0.23866737 -0.071677476
000290 d2 48 93 3e 55 95 bd bd c8 3b 37 3e 21 f0 02 3e
       0.28766495 -0.092569984 0.17893898 0.12786914
0002a0 05 7c 19 3e 2f bd 6f be c5 9f 02 be fc f2 0e be
       0.14988716 -0.23412012 -0.1275626 -0.13959879
0002b0 f0 93 4b be a4 65 14 3d 8b 9c 21 3e 04 38 b4 3e
       -0.19880652 0.036229745 0.15782373 0.35198987
0002c0 21 9d 0d 3e ad b5 97 be 36 ad 93 be 13 08 2c be
       0.13829471 -0.29630795 -0.28843087 -0.16799955
0002d0 a6 fc ac be d8 b4 d2 3e 4b 99 5d 3e db 1e 5b 3e
       -0.33786505 0.41153598 0.21640508 0.21398489
0002e0 c6 e0 6a 3c 1e 50 82 3e dd 9e 34 be 45 c7 0d 3e
       0.014335817 0.2545175 -0.17638727 0.13845547
0002f0 21 83 1d be b6 b4 5a 3e 51 1e 3b be 5c c8 a5 bd
       -0.15382053 0.21357998 -0.18273284 -0.08094856
000300 79 f3 39 3e 48 bc 3d 3d 5c 20 3e be 19 ea 0a 3f
       0.18159284 0.046322137 -0.18567032 0.54263455
000310 16 d4 21 be fa 02 48 be d9 ad 10 be b7 3e bf be
       -0.1580356 -0.19532385 -0.14128818 -0.37352535
000320 17 da 2e 3e 89 e9 c1 3e 78 c7 3a 3e b5 eb 9f 3e
       0.17075382 0.37873486 0.18240154 0.31234518
000330 2e 51 e4 bc a8 17 35 3e d3 ed 69 be b2 f0 24 be
       -0.02787074 0.17684805 -0.22844629 -0.16107443
000340 5d 27 97 bd 9c 29 16 3e dd da 2e be c4 08 6e 3e
       -0.07380555 0.1466431 -0.17075677 0.23245531
000350 ab 6a 2d be a1 6d e0 bd 90 90 95 be 46 e4 e9 be
       -0.16935222 -0.1095841 -0.29211855 -0.4568197
000360 86 eb f9 bc 35 be e8 bd 55 da 29 bd 5f 9b 44 3e
       -0.030507814 -0.11364404 -0.041467983 0.19199894
000370 ea 10 df 3e 8a 39 1e 3e 39 58 5b 3d 12 5c 33 3e
       0.43567592 0.15451637 0.053550933 0.17515591
000380 34 b2 6a be 4a 5c 0f be 52 8f 04 be c6 5b 78 3e
       -0.22919542 -0.14000049 -0.12945297 0.24253759
000390 55 e1 80 3e 79 23 d9 bc f3 ee ad bd 10 a6 5d 3e
       0.25171915 -0.026506172 -0.084928416 0.21645379
0003a0 96 13 52 3e 70 28 14 be fe 7c d9 ba 2e 0e 3f 3d
       0.20515284 -0.1446855 -0.0016593037 0.046644382
0003b0 51 68 19 bd cb 5e bb be a6 90 15 3c 55 91 5a b9
       -0.037453 -0.3659576 0.009128725 -0.0002084424
0003c0 2f a4 6a 3e a2 3e 01 3e 0a 74 ec 3e fb 0c 8e 3e
       0.22914194 0.12621549 0.4618228 0.27744278
0003d0 65 ac dd 3e 59 c4 92 be 4e 2f de 3d 43 25 d3 be
       0.4329559 -0.28665426 0.108488664 -0.41239366
0003e0 af 85 01 3e 2c bb 74 3d 06 8a cf 3e 82 a3 e7 3c
       0.12648652 0.059748814 0.4053499 0.028276209
0003f0 c7 4e 88 3e 8b 7f 3a 3e a3 b1 8d be ff 8a 5f be
       0.26622602 0.18212716 -0.2767459 -0.21830367

lstm.bias_ih_l0 f4 [32]
000000 08 8e 79 3d 1a 6a 1d 3e 43 47 c1 3d 17 58 1b be
       0.060926467 0.15372506 0.0943742 -0.15170322
000010 5a fe 8a 3e 34 52 2f be 65 d4 58 be f8 39 94 be
       0.2714718 -0.17121202 -0.21174772 -0.28950477
000020 aa 83 76 3e 7a 05 ca bd 90 bf 57 3e 4b 52 b8 bd
       0.24073663 -0.09864326 0.21069169 -0.09000071
000030 ea b0 73 be da cf 66 3e 88 82 bd 3d 5a 2c 61 be
       -0.23797956 0.22540227 0.092534125 -0.21989575
000040 cb b7 47 be df f1 73 3e 0b 9a 3a 3e bb de a9 3e
       -0.19503705 0.23822735 0.18222825 0.33177742
000050 5b 32 b0 3d da 95 d2 be 4d c4 bb be a7 6d 72 be
       0.086033545 -0.41129953 -0.36673203 -0.23674642
000060 0b 78 90 3e 41 90 5c bb 04 23 6e bd 27 ab 79 bc
       0.28216586 -0.0033655318 -0.058138862 -0.01523856
000070 95 16 b3 3b 58 cb 8d 3e 23 57 c7 bd 96 a0 80 be
       0.0054653385 0.276942 -0.09733417 -0.25122517

lstm.bias_hh_l0 f4 [32]
000000 24 69 b9 bd 31 95 5b be 86 71 94 bc 72 76 18 be
       -0.09053257 -0.21443631 -0.018120538 -0.14888933
000010 fc 4a c4 3d cc b9 4b be 3d ce 4c 3e 68 6f 4f be
       0.09584615 -0.19895095 0.20000549 -0.20257342
000020 95 8d 2c bd 7b e1 b9 3d c3 48 22 3e 92 ed b6 bd
       -0.04212721 0.0907621 0.15848069 -0.08932032
000030 99 a7 41 3e 27 6f d9 bd 5d f5 3b 3e dc e9 91 3e
       0.1891159 -0.10616904 0.18355317 0.28498733
000040 9b 26 95 3e 0c 91 c0 3e 93 9a 56 3e d0 5d 2a 3e
       0.29131016 0.37610662 0.20957403 0.16637349
000050 4b ce b0 3d 96 0a 4b 3e 66 5d 58 3e 42 7f 43 bd
       0.08633097 0.19828257 0.21129379 -0.047728784
000060 3e 68 13 be b2 10 d0 3e 67 0b e0 3d c8 a5 03 3c
       -0.14395234 0.40637738 0.10939675 0.008035131
000070 d3 54 b6 3c e8 ec e0 3e 5f 8a 76 3c db c7 60 3e
       0.022257244 0.43930745 0.015047639 0.21951239

lstm.weight_ih_l1 f4 [32, 8]
000000 43 55 10 be d3 f0 99 3e 06 66 02 be fa b4 43 3e
       -0.14095025 0.30066547 -0.12734231 0.19112006
000010 9b ff ea bd e2 1d 3c 3c 34 16 a1 be 37 3f 90 be
       -0.11474534 0.011481734 -0.31462252 -0.2817323
000020 10 d3 6f 3e 6d da 5f 3d af 2d 28 3e 4f 1e de bc
       0.23420358 0.054651666 0.16423677 -0.027114062
000030 f9 77 f7 3d a6 50 29 3b cb 34 3c be a9 94 b7 be
       0.1208343 0.0025835424 -0.18379514 -0.35855606
000040 c2 70 26 be c0 f1 55 be 02 73 66 be 50 41 e1 3e
       -0.16253951 -0.20893002 -0.2250481 0.43995142
000050 2b c8 d5 3e de 08 ce bd 7a 72 08 3e bc 88 81 be
       0.4175428 -0.10060285 0.1332492 -0.25299633
000060 83 b2 38 bd d6 21 06 be 2a 64 bc 3d 09 f9 cc bd
       -0.045092117 -0.13098845 0.09198792 -0.10008437
000070 bd d2 01 be f2 c1 14 be ec 48 19 3e 38 73 04 be
       -0.12678047 -0.1452711 0.14969224 -0.12934577
000080 06 7b b5 bd b7 0a e2 bd 67 57 ad 3e 3b a8 9b 3e
       -0.088613555 -0.110372 0.33855745 0.30401787
000090 af 59 9b 3e 87 57 c5 be f8 82 41 be fe 5c 38 bd
       0.3034186 -0.3854334 -0.18897617 -0.04501056
0000a0 47 3d c8 3d 63 18 6b 3e 6d b6 6a 3e db 1d 81 be
       0.09777313 0.22958522 0.22921152 -0.2521809
0000b0 b8 b7 50 3e 41 39 91 be a7 05 d9 3c 65 9d 29 be
       0.20382583 -0.28363994 0.026491953 -0.16563947
0000c0 61 c4 59 3b 92 31 60 3e e3 c1 bb 3d 2a 5f 2a bd
       0.0033228623 0.2189391 0.0916784 -0.04159466
0000d0 ac c1 65 bd 05 f3 94 be 08 f1 a3 3d 96 4b 5a 3d
       -0.056092903 -0.2909166 0.080049574 0.05329474
0000e0 83 fe 00 3e ad 3a a0 3e df ff 07 bb 10 f2 0a be
       0.12597089 0.31294766 -0.0020751876 -0.13568902
0000f0 76 81 11 3e 91 8b 93 be 6e db 3a be a0 0e 3d 3e
       0.14209542 -0.28817418 -0.18247768 0.1846261
000100 94 39 88 3e 5c da 0c 3e 2d cd 21 3e c2 9c ee 3d
       0.2660643 0.13755172 0.15800925 0.11650993
000110 7c ce 9d 3e de a0 9a 3d 2a 5f 71 bb 8d 2f 7e 3e
       0.30821598 0.07550214 -0.0036830404 0.24822827
000120 5e 3a 53 be 0d 3b 5d be ce 8d f9 3c 93 27 81 be
       -0.20627734 -0.21604557 0.030463126 -0.25225505
000130 1a 82 09 3e 8e 5f a4 be 89 04 e2 bc 30 a4 20 3e
       0.13428536 -0.32104152 -0.027590053 0.15687633
000140 bf 06 1f 3e 07 a6 85 be 31 fa 94 3b e0 68 7d be
       0.15529917 -0.2610323 0.0045464267 -0.24747038
000150 7f b6 1b be d1 a0 91 be 81 e7 f4 bc b5 14 e2 bd
       -0.15206335 -0.28443006 -0.029895546 -0.11039106
000160 8c a3 aa 3c e0 eb 6f 3e 89 ee 8b 3e 58 56 44 be
       0.020829938 0.23429823 0.27330425 -0.19173563
000170 67 8a cf bc 97 62 77 bd 71 46 60 3d 4c e3 40 bd
       -0.02533455 -0.060396757 0.05475468 -0.047091767
000180 2e 42 c8 3e d4 ca 0c be c7 26 0a be 9c 2e 18 3e
       0.3911299 -0.13749248 -0.13491355 0.1486153
000190 66 74 e4 bd 48 dd a2 bd 45 19 6a 3e 98 a8 b2 3c
       -0.11155014 -0.07952362 0.22861202 0.021808907
0001a0 e1 ec 9d 3e dd 66 fd bb 51 b6 00 3e 90 e1 a4 3e
       0.30844787 -0.0077332095 0.12569548 0.3220334
0001b0 51 1b de 3d 4d 9b 49 3d d4 e9 8d be ac f7 5d 3d
       0.10845054 0.049220372 -0.2771746 0.054191276
0001c0 28 ec 6b be 33 68 89 3e 7b cf 5d 3e 33 fc 91 3e
       -0.23039305 0.2683731 0.21661179 0.28512725
0001d0 c1 29 49 3e 0d 0b cf 3c 55 2f 71 3e 2e 89 ad be
       0.19644834 0.025273824 0.23553212 -0.33893722
0001e0 a9 f8 70 be 7a 07 c0 3e 5c 3e 19 be f2 a8 9b 3e
       -0.23532356 0.37505704 -0.14965194 0.30402333
0001f0 e6 49 8b 3d 6d 29 63 be 84 cb 9d be 24 03 b2 be
       0.068012044 -0.22183771 -0.30819333 -0.3476802
000200 63 1f 0e 3d 3d f4 29 be b6 66 43 be 66 be 7f 3d
       0.0346979 -0.16597076 -0.1908215 0.062437437
000210 83 2b 3e bc 98 b8 0f bc f5 0e de 3e fd ce c7 3e
       -0.011607054 -0.008772038 0.43370786 0.39025107
000220 03 4d a1 3d a6 86 24 3d d3 c9 37 3e 29 eb f3 3d
       0.07876017 0.040167473 0.17948084 0.119100876
000230 c6 10 4e 3d 61 ca 6b be c9 56 00 3d 4a 1c 18 3e
       0.050308965 -0.2302642 0.031332765 0.14854541
000240 c8 03 ef 3c b6 d4 61 be 34 35 43 3d 8a 83 ec 3d
       0.029176608 -0.22053799 0.04765816 0.115485266
000250 d1 f0 52 be 9e ec 7d 3d 7f 16 66 be d9 e6 88 bd
       -0.20599677 0.061993234 -0.22469519 -0.06684656
000260 e7 32 8d bd 13 93 c8 3e e3 2d c7 bd 03 8d 80 3d
       -0.068944745 0.3917471 -0.09725549 0.06276896
000270 54 f8 8b bd c4 68 5d be 18 87 1b bd 5b 1e 20 be
       -0.06834474 -0.21621996 -0.037970632 -0.1563658
000280 6c 56 53 bd ed fe b0 be c0 68 4c bc ac 03 44 3e
       -0.05159609 -0.34569493 -0.012476146 0.19142026
000290 1f 87 bc bc c3 0b 03 be 46 7e b5 3e 27 68 67 3e
       -0.02301365 -0.12797455 0.354479 0.22598325
0002a0 7c 5e c9 bd 1e 36 b9 be 8f ff 91 3e 47 ec b9 be
       -0.098324746 -0.361741 0.28515288 -0.36313078
0002b0 d9 3f 21 be ad b3 69 3d 6c cb 5d 3e 03 26 97 bd
       -0.15747012 0.057056118 0.2165963 -0.07380297
0002c0 80 95 15 3e 38 2c b3 be cc 51 c9 be 93 19 48 be
       0.14607811 -0.34994674 -0.3932022 -0.19541006
0002d0 6e 65 46 3e 5e 8e d8 3e 5e 60 9c 3d bc cc 2c be
       0.1937463 0.42296118 0.07635568 -0.16874975
0002e0 e6 e4 84 be db 6c 66 bd 65 95 22 bc 64 a9 c1 3d
       -0.25955886 -0.056256156 -0.009923314 0.09456137
0002f0 fd 76 81 bd f4 b7 b1 3d 07 f0 2f be fc 82 c2 be
       -0.06321523 0.086776644 -0.17181407 -0.37990558
000300 74 ed 1d 3c ec ef 77 be 88 99 6a 3e 6b c5 38 be
       0.009639133 -0.24212617 0.2291013 -0.18044059
000310 3d 35 2d 3d a2 80 67 be 02 38 38 3e 30 46 a9 3c
       0.0422871 -0.22607663 0.17990115 0.02066335
000320 51 94 b5 3e 70 4d 97 3e 59 8b 19 3e ff e8 39 3e
       0.3546472 0.29551268 0.14994563 0.18155287
000330 f7 e8 00 3e 47 f4 87 be 10 02 d2 be 61 68 a9 bd
       0.12588869 -0.26553556 -0.410172 -0.08271862
000340 bc 2e b2 3c b3 12 4e 3e de f3 c3 3e 7f dd 37 be
       0.0217508 0.2012432 0.38271993 -0.17955588
000350 e5 22 20 bc 59 af a3 3d 46 d7 90 be 60 68 4f 3e
       -0.0097739445 0.07992429 -0.2828924 0.2025466
000360 9d 42 ce 3e c1 ca d0 3d 09 22 a3 bd b5 a5 29 be
       0.40285197 0.10194922 -0.07965476 -0.16567118
000370 10 27 90 be 6a b8 8b 3e 14 bc 6f 3e a0 9a d0 be
       -0.28154802 0.27289134 0.2341159 -0.4074297
000380 b1 b9 7a 3e bb 48 e0 3e 05 95 0f 3e 8f a1 7d 3e
       0.24484898 0.4380549 0.1402169 0.24768661
000390 a2 f4 b1 3e 98 35 12 3e 27 ea 4f be 37 d4 aa be
       0.34756953 0.14278257 -0.20304166 -0.33365032
0003a0 96 be a6 3e 01 83 0c bc 9b 5d 6d 3d 60 8e 39 3e
       0.3256728 -0.008576156 0.057950597 0.18120718
0003b0 7b e3 07 be 9f ae 87 bd 42 fc b7 be d1 1f 55 be
       -0.1327037 -0.06625103 -0.35934645 -0.20812918
0003c0 b9 a9 d7 3d c5 1d 4c be db 05 3d 3e 22 c6 c1 bd
       0.10530419 -0.19933231 0.18459265 -0.09461619
0003d0 1d fe 1c be a9 6e 3a be 90 5e b6 be 4f 73 43 3e
       -0.15331312 -0.18206276 -0.3561902 0.19086955
0003e0 be 95 7d 3e 5e ce 5d be aa c0 bd 3e 59 5e 90 3e
       0.24764153 -0.21660754 0.37061054 0.28196982
0003f0 d2 45 5e 3d 53 ef c8 be b8 62 0c bc 69 d7 86 3e
       0.054265805 -0.3924509 -0.008568458 0.2633622
